COVID19_Prediction/models/model.ckpt (torch, 10199 bytes, 5 tensors)

layers.0.weight f4 [16, 117]
00000000: 58d4 8ebe 2a0d b33d 8407 7b3d 9c81 49bb
00000010: 62b0 a13d b6de 983c b678 b3bc 6f65 0b3d
00000020: 6305 2e3d a802 573c 9165 91bc bbbc 86bc
00000030: d4c3 87bc f7d6 6abc d161 a93c 9c3e 5a3c
00000040: 1698 453d 724d ac3c e1f0 b73d 3be9 883d
00000050: 7203 8a3d 81f4 6cbd 96b5 853d 38a9 963d
00000060: 720b 783d 0036 2dbd 853b 523d ab17 913d
00000070: 19db b6bd 671c 843d 2145 633d 3f53 a7bd
00000080: f374 46bc 0101 edbc 8742 6ebc 653d 203d
00000090: 2f28 bfbc 137f 92bd 4ceb 1a3d 72f4 4e3d
000000a0: 897b 8dbc a752 b63d 3082 f1bc b651 8ebd
000000b0: 98ac 93bd e133 a9bd aafb 7d3d 26e7 02bd
000000c0: ddad 0a3d 4292 86bd 15b5 86bd db63 893d
000000d0: ec2b 023d 5603 21bd 1e4f 443d 2033 5abd
000000e0: c0f8 0ebc cce1 87bd 3183 453c ae0e 7bbc
000000f0: c2cb 94bd 4166 a7bd 2120 01bd 404a 343c
00000100: 5181 3abd 49db 8bbd 0b33 413d 3526 9f3c
00000110: 2ba8 ad3d bc3d 953d eac7 283d 0cc4 693d
00000120: 4158 99bd f7a4 61bd 78e2 513d dd3e b23d
00000130: 538c 6f3d a4d0 30bd 5a1f 773d 5f4e cabd
00000140: b6a0 fe3c c47a a5bc 54a6 6a3d f4e8 a83d
00000150: 8f8c aa3d 85f4 b03d 6ac8 5e3d e9ac c9bc
00000160: ba00 a4bb fc5d acbc d18f 533d 6267 963a
00000170: 0a21 50bd f491 49bd e894 92bc 429a f23c
00000180: 529e 913d cc5e 363c a72d 89bd f7cc 453d
00000190: 0471 4cbd 6d6e 533d f295 4a3d acc0 c53b
000001a0: d543 f6bb 5997 af3c c707 0d3d 51c1 943d
000001b0: 6463 2dbd ea1b 7a3d 671c 853a 6ff4 903c
000001c0: 84c6 8dbd 3682 fd3b 70a3 a93d dc88 2a3d
000001d0: 3f65 2cbb ce83 213c 06b1 de3c 6998 823d
000001e0: 9020 c83d ee99 0dbc 9d69 873c 7a55 24bc
000001f0: 3b39 383d 4046 2fbd 1dac 6e3d ee18 603c
00000200: d8de a4bb cb59 ae3c 7a8b 953d 1c2b 0fbd
00000210: 08e9 c0bd 094f 83bb 253a 95bd f352 6e3d
00000220: 6b25 bf3d edb3 ae3c ced1 cc3d 10c1 853d
00000230: aa41 00bd bed4 a43d d777 afbd eb55 9abd
00000240: 1df6 4abd 7483 07bd 6ff1 493c 23f7 043d
00000250: 3628 c13d d339 eabb 5390 5abd 57d5 bb3c
00000260: 5eb8 b23b a49f 77bd d154 c1bb 13c1 f4bc
00000270: 09c7 603d 6358 883d 547d 533d 0cb9 ca3c
00000280: edf0 9ebc a28e 233d 3dc2 be3b c093 013d
00000290: bcf2 9cbd 269e 34bb 2542 98bc 4029 613d
000002a0: a32e babd 1cce 52bd 825f 363e 5919 dbbc
000002b0: 810c ebbc 6cd3 41bc 0146 dc3c a017 463d
000002c0: 87aa 973d 2399 583c d2f1 6dbc b751 cbbb
000002d0: ffbb fd3c bee3 b43c 0506 bfbb b74d 5cbd
000002e0: ea00 64bd 12b9 5bbc 897d bf3e a9d9 55bd
000002f0: f8a7 9cbc a44f 8a3c 7171 ccbc bdcb 7b3d
00000300: 5810 03bd 2398 7cbd 4c33 003d 3da7 163d
00000310: f4c6 3dbd d85a abbc 6cae 2e3c 2225 b63c
00000320: ad27 623d ceac 1f3d 3bf2 103f 6e42 223c
00000330: 6537 b53b f345 1fbb 9cd9 f53d f381 253d
00000340: 6f88 273b 7efd 353d e110 c0bd 4970 b13d
00000350: 8373 78bd c11f 67bd 3051 c5bd c8e2 453d
00000360: 7479 4abc b182 e4bd 15c1 2d3f 21b3 153d
00000370: 944f a73d 4531 0d3e 96d4 803d 857d 9d3c
00000380: fa7d 34bd 2d93 c93c e09a b63c 96dd 7cbd
00000390: b924 393d aaf8 8f3d dbfc a2bc b5d4 8c3c
000003a0: d0c1 cabd 9785 a4bb 62f7 42bd 8bd8 a6bd
000003b0: c3a6 82bc e7b9 f3bc acf9 3c3d 40d0 953d
000003c0: 6892 903d 2f91 3c37 a481 0abd b9bb 523d
000003d0: 0810 9bbd afd0 b23b 8f12 71bd 25d7 b23b
000003e0: d0bc 71bd 62fb 38bc cdf7 23bd 738b 333a
000003f0: f627 733b e586 92bd 7b4d 403d a754 9d3d
-0.2789638 0.08742745 0.061286464 -0.003074742 0.078949705 0.018660884 -0.021908145 0.03403228
0.042485606 0.013123192 -0.017748626 -0.016447416 -0.01657287 -0.014333478 0.020676525 0.013320591
0.048240744 0.021033023 0.08981491 0.0668511 0.067389384 -0.057850365 0.065287754 0.07356495
0.06055779 -0.042287827 0.051326293 0.070845924 -0.08928508 0.0645073 0.05548585 -0.08170175
-0.012112844 -0.028931143 -0.014542229 0.03912105 -0.02333459 -0.07153144 0.037822053 0.05052609
-0.01727082 0.089024834 -0.029481024 -0.06949179 -0.07210654 -0.08261848 0.062007584 -0.03195872
0.033857215 -0.06570865 -0.065775074 0.06708499 0.03178017 -0.039309822 0.047927015 -0.053271413
-0.008726299 -0.06634864 0.012055204 -0.015323324 -0.07265426 -0.081738 -0.03152478 0.011004031
-0.045533482 -0.06828935 0.04716782 0.019427398 0.08479341 0.072871655 0.041206278 0.05707173
-0.07487536 -0.055088963 0.051241368 0.087033965 0.058483433 -0.043167725 0.060332634 -0.09878229
0.031082492 -0.02020014 0.05728753 0.08247557 0.08327591 0.086403884 0.05439035 -0.024618583
-0.0050049694 -0.021040909 0.051650826 0.0011474902 -0.05081276 -0.049211457 -0.01789327 0.029614571
0.07110275 0.011131 -0.066981606 0.048291173 -0.049912468 0.051618982 0.049459405 0.006034931
-0.0075154104 0.021434473 0.034431245 0.07263435 -0.042331114 0.061061777 0.0010155559 0.01769468
-0.069226295 0.0077364696 0.08283126 0.041634426 -0.0026305465 0.009858085 0.02718402 0.06376726
0.09771836 -0.008642657 0.016529853 -0.010030145 0.044976454 -0.042791605 0.05826961 0.013677819
-0.005031448 0.021283051 0.07301994 -0.03495322 -0.09419447 -0.0040072245 -0.07286481 0.058184575
0.09333309 0.02132603 0.100009546 0.065309644 -0.031312622 0.0804839 -0.085677795 -0.07535919
-0.04955112 -0.033084348 0.012325629 0.03246225 0.09431498 -0.0071480065 -0.053360295 0.022928877
0.005454107 -0.06045498 -0.0059000035 -0.029877221 0.054877315 0.066574834 0.051633194 0.02474644
-0.019401992 0.039930947 0.005821495 0.031635046 -0.076634854 -0.0027560084 -0.018586228 0.05497098
-0.090909265 -0.051466092 0.17809871 -0.026745485 -0.028692486 -0.011830192 0.02688885 0.048362374
0.074055724 0.013220104 -0.0145229865 -0.0062048095 0.030973433 0.022081252 -0.005829575 -0.053785052
-0.055664934 -0.013410823 0.37400463 -0.05220953 -0.019123062 0.016883679 -0.024956437 0.061473597
-0.03199801 -0.061668526 0.03129892 0.036780585 -0.046332315 -0.020917341 0.010661703 0.022234503
0.05521362 0.03898316 0.56619614 0.009903533 0.005530285 -0.0024303168 0.12004396 0.040407132
0.0025563498 0.044431202 -0.093782194 0.08663995 -0.060657036 -0.056426767 -0.09634626 0.04831198
-0.012358058 -0.1115774 0.67872745 0.036547784 0.08169475 0.13788326 0.062905475 0.019224891
-0.044065453 0.024606312 0.022290647 -0.06173476 0.045201037 0.07029851 -0.019895962 0.01719127
-0.09900248 -0.005020808 -0.047599204 -0.08146771 -0.015948659 -0.029751731 0.046136543 0.07315111
0.07059175 1.1239476e-05 -0.03381504 0.051448558 -0.07571417 0.005457006 -0.05885559 0.005457776
-0.059017956 -0.011290403 -0.040031243 0.00068490877 0.0037102676 -0.07154635 0.04694889 0.07682162

layers.0.bias f4 [16]
00000000: 7497 a23c 4a6f 843d 1bc8 a8bd 3589 5abd
00000010: 0375 6ebc 075d b6bd a39f b1bd 6e6c 8fbd
00000020: fbf3 743d 2017 4bbc 2865 a9bd fc42 74bd
00000030: 72fe 3f3d 4c85 563d 3288 833d 7ff8 f2bc
0.01984761 0.06466539 -0.08241292 -0.053353507 -0.014554265 -0.08904462 -0.086730264 -0.07003103
0.05980299 -0.01239565 -0.08271247 -0.059634194 0.046873517 0.052373216 0.064224616 -0.029659508

layers.2.weight f4 [8, 16]
00000000: a110 523d 1255 733d eb53 b8bd ce97 58bd
00000010: 359e 543d 0053 303e 3368 adbd c12b 1d3e
00000020: f745 903d 36e2 48be bc0e e83d d451 86be
00000030: 961c 18be 11b1 6ebd 870c e5bd 61d8 763d
00000040: 28d4 30bd 8a14 e13b c9c9 4b3e 462e 743e
00000050: c587 733d 9fde 3a3e cc45 2d3e dadc 41be
00000060: 3180 8ebd a821 efbd e8f5 0d3e 688b babd
00000070: 409b b6bb faf7 803c d752 5dbd 249e 1a3e
00000080: 2b46 433e 3bb3 55bd e194 493d 1522 18be
00000090: 2248 203d 6ed1 f93d 3b6c 5bbe a0d2 f23d
000000a0: 8b62 e73d 78fb 703d aa33 793e 6d22 f03d
000000b0: 402f a6bc 0a43 5cbe dde7 23be 231e 563e
000000c0: 34f8 123e 94ea 5d3e aa4e a63d e5c2 29be
000000d0: c03d 413e 36b6 ae3b 6be7 a0bd 53c8 8c3e
000000e0: 9164 5b3e e01b e63c 7416 f93d 640d ffb9
000000f0: 8424 a0bd b495 803e a17e 90bd 8578 9b3e
00000100: a9c2 633d 9055 b8ba d47a bb3b 2754 633e
00000110: 3072 4cbe e186 06be 3f28 8a3d 9e3e 82bd
00000120: b2de dbbd 809e 133b 6cd6 34be 5365 dc3d
00000130: 0854 203d 555c 5fbd d2ea 0bbe 6899 46be
00000140: 5f62 62be 7f26 cd3d 17eb 023e 92a3 413e
00000150: e263 263e 2035 e43d 6c8c fb3d 553a a8bd
00000160: 8d41 14be fcc9 1ebe e6c1 533e 7ae8 033e
00000170: 8802 17bd 62bd b0bb 5ec0 19be 50a5 323d
00000180: c247 453e 1165 42be 8f1a 413e 6062 52be
00000190: 0e7d db3d 3732 0d3e 774e 27be 38c5 8cbe
000001a0: fcc3 43bb a04e a3bd a07f 1ebd 59fc 97be
000001b0: 5638 7f3e 1ec4 443e d6b6 6a3c 74ef 7ebd
000001c0: 84bb 7a3e a380 e83d b62a f0bd 70c1 debd
000001d0: 7dc4 ecbd 528a 7cbd 3a07 3abe d7c3 4a3e
000001e0: 3096 97bd 2602 123e fe1e 073e 779a 513d
000001f0: 6206 12be 84c9 493e 8292 8d3e 3097 7abc
0.05128539 0.0594073 -0.09000381 -0.052879147 0.05190869 0.17219162 -0.0846714 0.15348722
0.07044595 -0.19617543 0.11330935 -0.26234305 -0.14854655 -0.058274332 -0.1118403 0.06026495
-0.043171078 0.0068689035 0.19901194 0.23845777 0.05945565 0.18248986 0.16921157 -0.18931904
-0.06958044 -0.11676341 0.13863337 -0.09108621 -0.0055727065 0.015743244 -0.05403408 0.15099388
0.19069736 -0.05217288 0.049214248 -0.14856751 0.03913129 0.12198149 -0.21428005 0.1185658
0.112980925 0.05883357 0.24336115 0.11725316 -0.020286202 -0.21509948 -0.16006418 0.20909934
0.14352494 0.21671516 0.08120473 -0.16578253 0.18871212 0.00533178 -0.078566395 0.27496585
0.21425082 0.028089464 0.12162486 -0.00048647367 -0.07819465 0.25114214 -0.070554025 0.30365387
0.055605564 -0.0014063586 0.0057214294 0.2220007 -0.19965434 -0.1313739 0.067459576 -0.063595995
-0.10735835 0.0022524893 -0.1765992 0.107615136 0.03914264 -0.054531414 -0.13663796 -0.19394457
-0.22107838 0.10017108 0.12784992 0.18910053 0.1624904 0.11142945 0.12282643 -0.08214251
-0.1447813 -0.15506738 0.20679435 0.12881652 -0.03686765 -0.00539367 -0.15014789 0.043614686
0.19265655 -0.18983866 0.18857788 -0.2054534 0.10717212 0.13788687 -0.16338526 -0.27494216
-0.0029871454 -0.07973981 -0.03869593 -0.29684713 0.24923834 0.19215438 0.014325818 -0.06224008
0.24485594 0.113526605 -0.117268965 -0.10876739 -0.11560915 -0.06165535 -0.18166819 0.1980127
-0.07401693 0.14258632 0.13195416 0.0511727 -0.14260247 0.19705778 0.2765084 -0.015294835

layers.2.bias f4 [8]
00000000: 6982 7a3e 10b3 e3bd 86b1 5d3e cf7e 6d3e
00000010: 821b 583d 1421 4bbe c179 253e 5c58 133e
0.2446381 -0.11118138 0.21649751 0.23192905 0.05276061 -0.19836837 0.16159727 0.14389175

layers.4.weight f4 [1, 8]
00000000: 4cbb 493e 1488 04be 7772 7f3d fe78 c33e
00000010: fbb7 29be e930 bf3b 591e 18be 0f15 4b3e
0.19700354 -0.12942535 0.06236502 0.38178247 -0.16574089 0.005834688 -0.14855327 0.19832252
