Phoneme_Classification/model.ckpt (torch, 348375 bytes, 6 tensors)

fc.0.block.0.weight f4 [256, 39]
000000 39 75 64 bd cd e1 68 3e c4 28 87 be 6b 30 ea bd
       -0.055775855 0.22742386 -0.2639829 -0.11435016
000010 34 12 12 3c 63 03 be 3b 63 7c 86 bd d3 e3 15 3e
       0.008915473 0.0057987436 -0.06566694 0.1463769
000020 36 e0 0b bd 06 61 0c 3d 50 71 d6 bd fa 2d 97 bd
       -0.03414937 0.034272216 -0.104708314 -0.07381816
000030 22 90 32 be af bc 17 be 85 27 d7 bd 92 74 5b 3c
       -0.17437795 -0.14818071 -0.105055846 0.013394492
000040 ab 58 a8 3d 8b 71 6b 3e 82 c1 3e be 68 2d 21 bd
       0.08220037 0.22992532 -0.18628505 -0.039349943
000050 b4 1f 1b 3e d4 fe ea 3d 7a 63 76 bd 84 5d 0d 3e
       0.15148813 0.11474386 -0.060153462 0.13805205
000060 c4 5f 1b 3d 92 59 9f 3c b5 26 8c 3e ad e5 a1 bd
       0.037933126 0.01945189 0.2737328 -0.07905135
000070 d3 b5 1d bd 68 fe 8f bc 6c 2f 44 bd f6 ac 1c 3e
       -0.03850348 -0.017577365 -0.047896788 0.15300354
000080 ec 0b 11 be 58 af be bd 04 64 00 be 2b 6b 12 be
       -0.14164704 -0.09310788 -0.12538153 -0.14298694
000090 a0 83 94 bd 78 a0 1e 3e 51 b4 55 3d fe 3f 27 3e
       -0.07251668 0.15490901 0.052173916 0.16333005
0000a0 79 1c 59 3e 83 3e 81 bd 6b ce 0f 3d 35 5e 53 be
       0.21202268 -0.06310751 0.035108965 -0.20641406
0000b0 a5 aa 84 bd 10 0d 58 bd 73 10 e9 3d f8 74 b7 3d
       -0.0647786 -0.052746832 0.113800906 0.08957857
0000c0 f1 d9 bd bd 05 db 4a 3a ee fa 51 3e 54 1b 4c 3e
       -0.09270085 0.0007738325 0.20505878 0.199323
0000d0 15 ab a6 3d b9 36 43 bc 16 ca 88 bc be 45 2a be
       0.081381 -0.011914902 -0.016697925 -0.16628167
0000e0 6d ec 96 3d 58 e9 f7 bd e0 85 bd bd 52 7c d8 bd
       0.073693134 -0.12105054 -0.0925405 -0.10570587
0000f0 ee b3 6b 3d 92 f5 0d 3e 24 87 38 ba 4f 09 bf 3d
       0.05754464 0.13863209 -0.00070391805 0.09327947
000100 2a 9e 97 3d 21 94 3e bd 52 c0 b1 3c 03 84 6c 3d
       0.07403214 -0.046527985 0.02169815 0.057743084
000110 fb 11 46 3e 00 66 7e 3e cb 5a e7 bd ff 88 14 be
       0.19342797 0.24843597 -0.11296614 -0.14505385
000120 e7 cf c7 3d 7b 8a 27 3e 70 c7 3f 3e 7c 5a fb 3d
       0.09756451 0.1636142 0.18728423 0.12273118
000130 a1 1c 64 bc 6e d1 62 be 7e 6d 24 bc ac 1b 5b bd
       -0.013922841 -0.22150204 -0.010035871 -0.053493187
000140 7a c3 31 be 7c 54 41 3e b2 24 0e 3e 88 cc 74 be
       -0.17359725 0.18879884 0.13881186 -0.23906147
000150 0b 21 9d 3d e4 1b de bd ee 25 a5 bc ca 7c 38 be
       0.07672318 -0.108451635 -0.020159688 -0.18016353
000160 58 7a 70 3d 81 34 1d be bb d4 82 bc b0 26 5e 3d
       0.058710426 -0.1535206 -0.015970578 0.054236114
000170 7e 32 31 3e 39 55 c7 3d de 90 8a be 1d 90 43 be
       0.17304417 0.09733052 -0.2706365 -0.19097944
000180 e5 5f a4 3d d7 9f b8 bc 63 0d 67 be fe 32 f4 bd
       0.08026103 -0.022537155 -0.225637 -0.119237885
000190 7d a0 20 3e 04 49 c1 3d 49 25 d5 bd 40 95 be bd
       0.15686221 0.09437755 -0.10407502 -0.09305811
0001a0 ce ed 47 be 80 fd 8b bd 3c 8f 25 be b1 41 33 be
       -0.19524309 -0.06835461 -0.16167921 -0.17505528
0001b0 01 d1 70 3c 5a 7f aa 3d e4 df 1b bc 46 a3 04 3e
       0.014698268 0.08325072 -0.009513829 0.12952909
0001c0 65 55 1a bd 7a a9 30 3e 6f 77 b9 3d f4 6f 20 be
       -0.037679095 0.1725215 0.09055983 -0.15667707
0001d0 83 44 6d bd cc 7f 20 3c 67 8d cb 3d 25 65 2c 3e
       -0.057926666 0.009796094 0.0993908 0.16835459
0001e0 e8 14 11 bd 14 02 b0 bd d8 ae 5a bd 5b 4c 1b 3e
       -0.03542033 -0.08594146 -0.0533894 0.15165846
0001f0 8a 30 0c be 1c f2 04 be 1a 00 30 bd 9f 6d ae bd
       -0.13690391 -0.12982982 -0.042968847 -0.08517002
000200 e5 2e 5e 3d 58 55 c4 bd ea a5 90 3d 64 80 34 3c
       0.05424394 -0.095865905 0.070628956 0.011016939
000210 9b 78 4c be 9a 2d 53 bd e5 1a 06 3e dc 71 2b 3e
       -0.19967882 -0.05155716 0.13096197 0.16742653
000220 bf 73 c0 3d ac 9c da bd c3 c0 01 3d ba 1f 06 3e
       0.09397077 -0.10674414 0.031677973 0.1309804
000230 80 43 37 3e 10 81 03 3d 81 3c ba 3d 5b 6a fb bc
       0.17896843 0.032105505 0.090935715 -0.030690363
000240 55 0e 0e be 13 5d e7 bd 03 3e 54 3e 29 d5 07 3d
       -0.13872655 -0.112970494 0.2072678 0.03316227
000250 e2 48 46 bd 53 a4 5c be 9a 25 6a be 2f 58 1e be
       -0.04840935 -0.2154706 -0.22865906 -0.15463327
000260 84 05 c7 bc 8b 3a 3b 3d 82 56 50 3d 51 4d 36 be
       -0.024294622 0.045710128 0.05086375 -0.17802931
000270 a4 5e 7f 3e 4a c6 9d be c7 65 ae 3d 09 a5 f9 bd
       0.24938446 -0.30815345 0.08515506 -0.12189681
000280 9b 67 a8 bd 9b 10 64 be 53 b7 a3 bd 1c ca 31 be
       -0.08222886 -0.2227196 -0.07993951 -0.17362255
000290 fa 92 22 be 2c eb f0 3c cf 78 d8 3b 70 53 9c bd
       -0.1587638 0.029409014 0.0066061984 -0.07633102
0002a0 ba 35 a9 bd c5 18 24 be cf 72 9c 3d 00 77 0c 3d
       -0.08262201 -0.16025074 0.076390855 0.034293175
0002b0 3e 4a 47 3e 22 9f 40 3b bd 63 10 be e8 f3 f0 3d
       0.19461915 0.0029391726 -0.14100547 0.117652714
0002c0 24 ac cb 3d fb 66 4b bc 7e ea e4 3d 9b a0 80 bd
       0.099449426 -0.012414689 0.11177538 -0.06280633
0002d0 2a 2e 11 3b 56 1e 10 bc e7 64 33 3e 5a 85 f9 3d
       0.002215276 -0.008796295 0.1751896 0.12183638
0002e0 3d 4b 2e 3e d9 ee 27 3d 07 20 ef bd 37 1b 98 bd
       0.17020889 0.040999267 -0.116760306 -0.07427066
0002f0 05 76 cd bd d3 f6 93 3d 4e e2 02 3e 3c c4 40 3c
       -0.10032276 0.07224812 0.12781641 0.011765536
000300 92 95 08 be 6a 19 aa 3c 25 9c 07 be 79 26 59 be
       -0.13338307 0.020764071 -0.13243158 -0.21206082
000310 f0 c1 71 be b0 57 20 3e 2c bd c4 bd b3 c3 cd bd
       -0.23609138 0.1565845 -0.09606394 -0.10047092
000320 07 ba 04 bd bd ca b5 3d e9 f2 0a be f6 f3 11 be
       -0.032403972 0.0887656 -0.13569225 -0.1425322
000330 c4 03 22 be d7 d0 f4 3d 2e 1c a9 bc 0e f6 c2 3d
       -0.15821749 0.119538955 -0.02064332 0.095195875
000340 35 e6 74 3d 3c ff f6 3d 85 e0 23 3e 39 37 bb 3c
       0.059789855 0.12060401 0.16003616 0.02285348
000350 ad 9b a2 bd d1 20 eb bc 06 c0 83 3d ed f4 a8 3c
       -0.07939849 -0.028702172 0.0643311 0.020624602
000360 dd 2c d0 bd d1 15 8e bd f2 40 03 3e d3 b3 06 be
       -0.10164807 -0.06937755 0.12817743 -0.13154535
000370 42 f9 29 bd 39 5b 5d 3e 57 b3 f7 3d 7f 9c d6 3d
       -0.041497476 0.2161683 0.12094753 0.10479068
000380 c2 9c 69 be 55 c8 25 bd f1 3c 5c be 90 f8 48 bc
       -0.22813705 -0.040474255 -0.21507622 -0.012266293
000390 1d 36 72 bd c0 3e 52 bd e0 28 46 bc 8b d7 cb 3d
       -0.059133638 -0.051329374 -0.012094706 0.09953221
0003a0 1d f7 92 bc 28 d8 c8 3d 47 c9 15 3e e4 63 a2 bd
       -0.017940098 0.098068535 0.14627562 -0.07929209
0003b0 0e be 8e 3c b7 74 41 be fc 4b c0 bd 4b b1 ac 3d
       0.01742461 -0.1889218 -0.09389493 0.084322535
0003c0 95 ae 18 3e 57 99 44 3d 19 ee e3 3c 7f a0 fb 3b
       0.14910348 0.0479978 0.027823495 0.0076790447
0003d0 3b f8 13 3e 21 6f de bd 27 ba 2d 3e 18 3f 4a be
       0.14450161 -0.1086104 0.16965543 -0.19750631
0003e0 36 74 98 bd af 2d a8 bd de a8 88 bd 6e 24 8f 3d
       -0.074440405 -0.082118385 -0.06672834 0.0698937
0003f0 01 07 15 3e e3 c2 6c bd d4 2a 23 be 7c 6a 5b bd
       0.14553453 -0.057803046 -0.15934306 -0.05356835

fc.0.block.0.bias f4 [256]
000000 b7 4a 80 3c 22 8a a5 3d 67 ba 22 be a1 99 1b be
       0.015660627 0.08082987 -0.1589142 -0.15195324
000010 80 0b 1b 3d 56 f4 82 3c 4c 30 28 3e fc 0d 82 3e
       0.037852764 0.01598565 0.16424674 0.25401294
000020 7a ab 8f bd b9 b4 3e 3e 8b db 2d 3d 93 9b a6 3e
       -0.070151284 0.18623628 0.0424457 0.3254057
000030 89 56 26 be a1 d1 1a bd 06 ea 08 3d 72 fd 8e 3e
       -0.16243948 -0.037797574 0.033426307 0.27927738
000040 45 3a bb 3e 0c 03 a2 ba bd 32 07 3d 79 3d 1b be
       0.36567894 -0.0012360527 0.033007372 -0.15160169
000050 28 0e 18 3e c4 db 18 3d 99 1e ea bd eb 43 98 3e
       0.1484915 0.03731896 -0.11431617 0.29739317
000060 7e 83 51 3d 89 fb c2 3e 35 df d0 3c ec c6 19 b8
       0.05115079 0.3808253 0.025497058 -3.6663303e-05
000070 8b 12 59 3e 04 eb 3d 3d d1 a8 d3 3d e9 72 d5 3e
       0.2119848 0.046366706 0.103349335 0.41689232
000080 2f 18 9e bd 02 7f be 3e ed 94 ad 3e c5 42 41 3e
       -0.077194564 0.37206274 0.33902684 0.18873127
000090 e1 1a 55 3e b5 75 0a 3e 11 2d e4 3d 0d 03 33 3d
       0.20811035 0.13521464 0.11141408 0.04370408
0000a0 37 ef 1e be d8 9c ef 3c 78 0b 9f 3e df 76 30 3e
       -0.1552094 0.029249594 0.31063437 0.17232846
0000b0 ba 19 82 3e 9e 74 33 3e f7 df 67 3e 64 3a 20 3d
       0.25410253 0.17524955 0.2264403 0.039118186
0000c0 e4 3e 32 3c 5a 52 52 3d 32 64 0c 3e f6 10 44 be
       0.010879252 0.051348068 0.13710096 -0.19147095
0000d0 ca 1f bd 3d de 5f 37 3e 2e cd 8c 3d 90 94 65 bc
       0.09234579 0.17907664 0.068750724 -0.014012471
0000e0 b9 90 c0 3c bc 6d 0c 3e be 4c 63 be bc 4f c3 3e
       0.02350651 0.13713735 -0.22197244 0.3814677
0000f0 60 54 ef bd 1d 6b 2e 3e b0 52 04 be 95 3c 28 be
       -0.11686015 0.17033048 -0.12922168 -0.1642936
000100 4d 60 8e 3c a8 1f 16 be 97 5d db 3d 52 35 c0 bc
       0.017379904 -0.14660513 0.1071121 -0.023462925
000110 bc 50 0c 3e eb 3a 95 3e 12 db 80 bc ab 87 c2 3b
       0.13702673 0.29146513 -0.01572946 0.005936583
000120 a3 2e f3 bd 56 b9 63 3e be 9e 46 be 2f 5a a3 3e
       -0.118741296 0.22238669 -0.19396493 0.31904742
000130 da 30 c0 3d 34 d4 76 3d ba 4f e4 3e 27 1c 44 be
       0.09384318 0.060260966 0.44592077 -0.19151364
000140 2d ea 56 be ac e2 2c 3e ce fc 0e be a4 07 28 3e
       -0.20987768 0.16883343 -0.13963625 0.16409165
000150 42 23 c5 3d 52 d6 31 be ab ec 41 bd b5 00 bf bc
       0.096258655 -0.17366913 -0.047344845 -0.023315767
000160 20 71 34 3e 6b 43 ec 3d 0e 4f bb 3e 09 82 ed bd
       0.17621279 0.115362965 0.3658375 -0.11597068
000170 53 b3 00 3e df 09 d7 bd 85 79 b9 3e ca 9b 9a 3e
       0.12568407 -0.1049993 0.36225525 0.30196983
000180 9d 9d 25 be 28 34 3c be bd b9 17 be 21 3d 15 bc
       -0.16173406 -0.18379271 -0.14816947 -0.009108813
000190 4f 4a 35 3e cf ab 15 be d5 bb 3f 3d 1e 43 9a bc
       0.17704128 -0.14616321 0.04680999 -0.018830832
0001a0 04 c7 c7 3e e9 95 62 be fc b5 90 bd ef c7 38 3e
       0.39019024 -0.22127499 -0.07065961 0.18045019
0001b0 9c 10 af bd b8 6f 86 3e db 20 1f be a8 e0 47 bd
       -0.0854809 0.2625711 -0.15539877 -0.048798233
0001c0 35 a9 97 3c bc 72 a3 bd d7 ca 8a bb c2 9b 9c 3e
       0.018513301 -0.07980868 -0.004235606 0.30587584
0001d0 7f d7 17 be ec 9a a5 bd 90 ae 09 3d 6b c9 18 be
       -0.14828299 -0.0808619 0.03361374 -0.14920585
0001e0 fe 23 18 be 7c ed 1c 3e 23 2e 95 3e 27 43 80 bd
       -0.1485748 0.15324968 0.29136762 -0.06262808
0001f0 d5 e2 5b be 72 73 75 3e 70 c6 90 3e 39 55 3a be
       -0.21473248 0.2396982 0.28276396 -0.18196572
000200 50 3c da bc a0 2c bd 3e 90 4c 37 3d 34 0d 7a bd
       -0.026640087 0.3694811 0.04475075 -0.061047748
000210 5e a7 14 3e d8 8a 6a bd 65 e1 61 be 5a d7 c1 bd
       0.1451697 -0.057261318 -0.22058637 -0.09464903
000220 5c 9b 8b 3e 9d f6 ec bc 2d a1 82 3e ad 89 e1 bc
       0.27266967 -0.028926188 0.25513592 -0.02753147
000230 a8 a6 2f 3e 66 a4 37 3e 87 fc be 3c eb 5c 82 bd
       0.17153418 0.17933807 0.023313774 -0.06365379
000240 ce 9c 57 bd 83 66 2a be 3d f4 e5 bc 4e 1a 63 bd
       -0.052639775 -0.16640668 -0.028070563 -0.055445008
000250 ee ec b8 bd c0 a0 ce 3e 4b 5a 91 3e 07 31 ad bd
       -0.09029566 0.40357018 0.283892 -0.08456617
000260 2b 6d 1d 3a d4 31 99 3d a7 1a 93 3e c2 93 b4 bd
       0.0006005342 0.07480207 0.28731272 -0.08817245
000270 72 90 44 ba fc 12 2a 3e a2 67 37 3d ea 4b 34 bd
       -0.00074983307 0.16608804 0.044776566 -0.04401771
000280 a0 be 47 3e 88 09 91 3e c6 a0 1b bd 02 dc a6 3e
       0.19506311 0.28327584 -0.037995122 0.32589728
000290 e0 17 a2 3e 7d 9b 1e bd 1f c7 21 be 2f bf 64 3e
       0.3165884 -0.038722504 -0.15798615 0.22338556
0002a0 9c cf 4c 3e 67 8c 10 be 7d 69 21 be a4 e2 b4 bc
       0.20001072 -0.14116059 -0.15762897 -0.022080727
0002b0 87 e1 19 be 37 f9 8b bd df be 8f 3e e5 d3 a5 3d
       -0.15027438 -0.06834643 0.2807531 0.08097056
0002c0 ff e5 44 3e 96 c6 59 3e 51 93 fc 3e 28 49 bf 3e
       0.19228362 0.21267161 0.49331143 0.373605
0002d0 1a a1 0d 3e e1 93 7a 3e 04 c8 d1 bc 05 dc aa 3e
       0.13830987 0.24470474 -0.02560807 0.33370987
0002e0 ea 22 db 3d c8 dc c8 3e a8 73 00 be 78 df 6f be
       0.10700019 0.39230943 -0.1254412 -0.2342509
0002f0 dd 23 d0 3e b4 73 97 bd 71 d0 24 3e 69 0c b2 3e
       0.40652362 -0.073951155 0.16095139 0.34775093
000300 37 6d 3d 3e 04 eb 08 be 79 1c 84 bd fd 7b 80 3c
       0.18498693 -0.13370901 -0.06450743 0.015684122
000310 75 a4 3b be 38 27 67 3e 55 7a 1a 3e 66 6e 4c bd
       -0.18324454 0.22573555 0.15085728 -0.04990997
000320 9f 3e 7d 3e 5b f1 86 3e c1 3a 04 3d ce 30 92 3e
       0.2473092 0.26356015 0.032282595 0.2855286
000330 2e 71 e4 bc 34 fa 71 3e 98 2c 83 3d 72 11 8c 3d
       -0.027886 0.23630601 0.0640499 0.06839265
000340 da 96 cc 3e f2 98 83 3e c0 0c ec 3e ac d2 cf bd
       0.3995884 0.25702626 0.46103477 -0.10147604
000350 39 dc 1f bc 87 2e 88 3e d3 c4 5c bc 7e 25 aa 3d
       -0.009757095 0.26597998 -0.013474661 0.08307932
000360 e0 94 e3 bb c6 4e 6f bd f8 8c dd 3c 4e 74 a8 3e
       -0.0069452375 -0.058424734 0.027044758 0.32901233
000370 98 2b a6 bd 9c 25 a9 bd a5 38 9d 3e 44 62 5f 3d
       -0.081137836 -0.082591265 0.3070728 0.054537073
000380 5b 51 a8 3c c2 c6 7d be 2b 9f 02 3b 3b 47 87 3e
       0.020546606 -0.24782851 0.0019931297 0.26421532
000390 02 d7 04 3e ad 65 5b bd 23 ae b8 bd 55 b5 89 3e
       0.12972644 -0.053563762 -0.09017589 0.26896158
0003a0 c3 19 23 bd 57 2e bf bc ea 3b ed bc 9c 02 e4 bd
       -0.03981949 -0.023337526 -0.028959233 -0.1113331
0003b0 cf 88 8a bb 0d e3 6f 3e e0 a3 60 be b6 e4 95 3e
       -0.0042277346 0.23426457 -0.21937513 0.29276055
0003c0 1d 87 bf bd 40 7a 88 3d 76 6b f7 bc 5f 15 60 3e
       -0.09351943 0.06663942 -0.030202609 0.21883152
0003d0 f0 20 cd bd 0c bd 94 bd 08 02 48 be a9 85 d7 3d
       -0.10016048 -0.0726262 -0.19532025 0.105235405
0003e0 72 47 17 3e cc 1c d0 3e 35 5a ec 3e 1e d1 47 3d
       0.14773348 0.4064697 0.46162573 0.048783414
0003f0 f0 6b 16 bd ee 61 ec bd e0 9e bc 3e e0 84 b1 3e
       -0.03672403 -0.11542116 0.36839962 0.34671688

fc.1.block.0.weight f4 [256, 256]
000000 97 f6 58 3d 62 c6 0f 3d f7 78 17 bd 8a 78 12 bd
       0.05296954 0.035101302 -0.036980595 -0.035759486
000010 3e cf 8e 3d f3 f4 a7 3b 59 e1 c0 bc 4d 9e 00 be
       0.06973122 0.005125636 -0.023544954 -0.12560387
000020 15 86 d6 bc f6 5e ee 3d 40 1d 64 3c d6 1a a6 3d
       -0.026186982 0.11639206 0.013922989 0.08110587
000030 44 0b 05 bd 60 47 97 3d 77 de e9 bc 9d fd e3 bc
       -0.032481447 0.073866606 -0.028548462 -0.027830893
000040 3c 25 3b bd aa 5e 11 bd ee f2 16 bc 00 e1 f0 bb
       -0.045689806 -0.03549067 -0.009213192 -0.007351041
000050 49 69 65 bd 61 2e 91 3d 17 cf 23 3d 11 2c 2a be
       -0.05600861 0.07088924 0.03999242 -0.16618372
000060 2f a4 88 3d c1 5d 32 bd 07 71 69 bd db 56 1e 3d
       0.066719405 -0.043546442 -0.056992557 0.03865705
000070 89 33 84 bd 3c 85 b8 3b 09 a4 c0 bc 39 ab e0 bd
       -0.06455142 0.005631117 -0.023515718 -0.10970158
000080 a3 2a 45 bd 94 8b 2e bd ff 10 13 ba 47 6a 2f bb
       -0.048136365 -0.04261358 -0.00056101376 -0.0026766227
000090 77 73 a9 3d 68 33 45 bd 28 9d 86 3d ce af 99 bc
       0.08273976 -0.048144728 0.06572944 -0.018760588
0000a0 3b fe a1 bb 1d c6 15 bc 26 68 cd 3c 6c f3 e7 3d
       -0.0049436367 -0.009141472 0.025074076 0.11325726
0000b0 d0 5e ab 3d b2 ac b2 3b 4c 24 1c 3d 49 9d 1c bd
       0.083676934 0.005452716 0.038120553 -0.038235936
0000c0 de 4b 22 3b ae fb cc 39 4f 5a 95 bd 73 01 91 3d
       0.0024764459 0.00039097428 -0.072926156 0.070803545
0000d0 93 31 fb bd 40 0a 0e 3d b3 a2 62 3d 40 9b 1b 3d
       -0.12265315 0.034677744 0.055330943 0.037989855
0000e0 fd bf c5 3d b7 ec 5a bd fb 07 9e bd f2 91 b8 bd
       0.096557595 -0.053448405 -0.07716366 -0.09012212
0000f0 42 c1 06 3e 24 28 df 3c e7 58 01 be b3 25 07 3d
       0.1315966 0.02724082 -0.1263157 0.032994937
000100 df f8 cd 3a 95 2c ad 3d 60 24 4d bc ab fc af 3d
       0.0015714428 0.08455769 -0.0125208795 0.085931145
000110 64 d0 59 3d db 85 32 3d 33 4b 9a bd 62 7a 13 3e
       0.053177252 0.043584686 -0.07533874 0.14402154
000120 3b dc 18 3e 05 ec b4 bd b5 84 80 3d d2 1b d1 3d
       0.14927761 -0.0883408 0.06275312 0.102103844
000130 53 02 06 3d e1 f1 6c bd d8 1d b4 bd d9 d8 44 3e
       0.03271706 -0.05784786 -0.08794755 0.19223346
000140 e1 4f 72 3e 64 97 bf 3c f1 4d b8 bd 44 27 5e bd
       0.23663284 0.023387618 -0.08999241 -0.054236665
000150 84 ab ea bd 7e 78 fc ba cd d6 40 39 29 31 1b 3b
       -0.11458495 -0.0019261984 0.00018390566 0.0023680425
000160 ae 61 7e 3d 10 d5 93 3c f0 06 04 be 1e 29 ae bc
       0.062104873 0.018045932 -0.12893271 -0.02125984
000170 09 0c 09 3c bc 7e 21 3b 23 13 87 bd 8a 89 97 3d
       0.008364686 0.002464219 -0.06595447 0.0739928
000180 b6 d8 b3 bd 32 c8 bd 3d 17 9c af 3d 9a cc 77 3a
       -0.08781569 0.092667 0.08574694 0.000945279
000190 13 16 0c 3e d6 fd bb bd b6 91 d4 3c dd ce 0e 3c
       0.13680296 -0.09179275 0.025948387 0.008716312
0001a0 0d 0a c0 3c a1 64 b3 bd ca a6 69 3c df c4 b2 bc
       0.023442293 -0.08759428 0.014260957 -0.021822391
0001b0 a5 98 13 be 07 c4 b0 bd ba 58 0a 3e e3 46 85 bc
       -0.14413698 -0.08631139 0.13510409 -0.016269153
0001c0 26 6b dd bd dc 2f d0 bc bf ab 1e bd 73 aa 97 bd
       -0.108114526 -0.025413446 -0.03873801 -0.074055575
0001d0 3a 67 31 3c 9d 2d 93 bd 46 55 60 bc 54 93 8c bc
       0.010827834 -0.071864344 -0.013692206 -0.017160095
0001e0 eb 25 f7 3c 44 8e e1 3c 15 42 8a bd e8 3d e8 3a
       0.030169448 0.027533658 -0.067508854 0.0017718645
0001f0 36 0d 4a 3d fc 54 a7 3b d3 cd 34 bc 3b 6f 8d 3d
       0.049329005 0.0051065665 -0.0110354 0.06905981
000200 1d 27 4f 3d d9 73 19 bb 00 23 5c 3d ad 25 b5 3d
       0.05057441 -0.0023414998 0.053744316 0.08845077
000210 df b8 70 bd d4 0f 08 3d 4f 16 82 3c 77 61 bf bd
       -0.058770057 0.03321822 0.015879778 -0.09344762
000220 e2 ad d5 b9 43 03 98 bd 0c 60 11 bd 18 20 9d bb
       -0.0004075608 -0.07422497 -0.035491988 -0.0047950856
000230 23 81 8a bd ad 16 1b 3d 62 1b 09 3d 87 50 c2 3d
       -0.06762912 0.037863422 0.03347338 0.094880156
000240 ea 77 17 be 00 0f 49 3b 29 6b c2 3d 7c 04 2e bc
       -0.14791837 0.0030679107 0.094930954 -0.010621186
000250 5c cf 34 be 6f ed c1 3c 0c 07 b3 bd ac 9a a7 bc
       -0.17657226 0.023672787 -0.087415785 -0.020459495
000260 d0 0a 02 3e 15 85 e1 bd 2d cf 07 3e c6 57 33 3d
       0.12699437 -0.110117115 0.13262625 0.04378488
000270 ec 3b db 3d d2 b2 ae 3d c5 58 28 bc 77 c6 ec 3d
       0.107047886 0.08530201 -0.010275071 0.11561292
000280 19 4a e8 3c f0 6f 96 bc 28 01 08 be 39 38 07 3c
       0.028355645 -0.018363923 -0.13281691 0.008253151
000290 06 c9 38 3d ea 89 b1 3d fe 9a 35 bc 0e da 0f bd
       0.045113586 0.08668883 -0.011084316 -0.035120063
0002a0 76 54 24 bd e9 98 b5 3d 26 dc 6b bd b5 d5 87 3d
       -0.04011961 0.08867056 -0.057582997 0.06632558
0002b0 1d 24 b4 3d 5a df 1c be 9b ca ec bc 22 82 d4 bb
       0.087959506 -0.15319577 -0.028905204 -0.0064852396
0002c0 2d 66 b1 3d 21 67 f8 bd 5d f2 24 3a ab df 97 3c
       0.086620666 -0.12129045 0.00062922185 0.01853927
0002d0 9c 24 9c bc 47 3c a8 3c 4b 94 2f 3d d9 30 82 3d
       -0.019060425 0.020536555 0.042866033 0.06356973
0002e0 cc c7 da 3c 07 b7 f1 bd 0d a9 8d bc 8d ff e3 bd
       0.026706599 -0.11802488 -0.017292524 -0.11132727
0002f0 27 ac d9 bd 28 02 95 bd 4b 10 d3 3c d3 18 3c bd
       -0.106285386 -0.07275802 0.025764605 -0.04592211
000300 f1 96 c6 3d 2d 21 ab 3c 82 0a 81 bd f7 59 9b bd
       0.096967585 0.020889843 -0.06300832 -0.07585519
000310 f0 2a 15 3d 05 92 d9 bd 9d 6a 32 3c ea 92 bf 3d
       0.0364179 -0.10623554 0.010889676 0.093541935
000320 54 02 58 bd cb 67 23 3e cd f0 11 3d 90 f8 77 3c
       -0.052736595 0.15957563 0.035630036 0.0151349455
000330 31 9a e4 3d 70 47 ba bc 02 0f 10 3c 47 ee 14 bd
       0.11162222 -0.022739142 0.008792641 -0.03636005
000340 12 a8 6a bd da a0 37 3d d9 8b 4e 3d c2 81 6c 3d
       -0.05728919 0.044831134 0.050426338 0.057740934
000350 dd 75 0b 3e 24 30 37 3d 27 74 a2 3d e1 4e 85 3c
       0.1361918 0.044723645 0.079323106 0.016272964
000360 7c ad 06 be d1 c6 ee ba 3a 1b 81 3d af fb 2d bd
       -0.13152117 -0.0018217211 0.06304021 -0.042476352
000370 e0 63 1d bd bc 9b e3 3d de ce 54 3d e6 50 a3 bd
       -0.038425326 0.11113688 0.051955096 -0.079744145
000380 b5 2c 2f 3e 74 63 c3 bb 2e 0c c1 bd 06 d1 8f 3d
       0.17106898 -0.0059627835 -0.09426151 0.0702229
000390 ba bb 2d 3c 95 38 d9 bd 4e 78 a9 3d 5a 6a d2 bd
       0.0106038395 -0.10606495 0.082748994 -0.10274191
0003a0 55 7a 91 bd fb e2 01 be fb 79 a3 bd 9c 23 ae bc
       -0.07103411 -0.12684242 -0.0798225 -0.021257214
0003b0 08 18 56 bd 09 29 ad 3c b7 20 b3 bc 7a 64 a2 3d
       -0.05226901 0.021137731 -0.021866186 0.07929321
0003c0 7e 71 ab 3d a6 4f 83 3c 37 90 3e 3d 1c 08 50 3d
       0.08371256 0.01602919 0.046524253 0.050788984
0003d0 51 63 f1 3c 75 f8 13 3e 7f 6c d6 3c d1 7b d3 39
       0.029466303 0.14450248 0.026174782 0.00040337307
0003e0 9f 17 d4 3d 77 7e 15 be 14 fa b6 bc a8 03 6c bd
       0.10356068 -0.14599024 -0.022336043 -0.057620674
0003f0 b1 ba b2 3d 9b 1a 8a 3d 16 5c 56 3d f9 e1 00 be
       0.08727015 0.06743356 0.052333914 -0.12586202

fc.1.block.0.bias f4 [256]
000000 d8 2e 6e bd f6 a9 a2 bd b5 0a 81 3b b0 7e 52 3d
       -0.058150142 -0.07942574 0.003938044 0.05139035
000010 b7 21 0d bd 54 fe 7b 3d 98 95 74 3d 47 5b 36 3d
       -0.03445598 0.061521843 0.059712976 0.044520643
000020 ed 12 fa bc ee 31 24 3e 39 8f 2e be 17 75 cf 3d
       -0.030526603 0.16034672 -0.17046823 0.10129755
000030 3a f1 1e 3e f1 67 99 3b d5 23 4d bd 1c 20 c1 bd
       0.15521708 0.0046815802 -0.050083 -0.094299525
000040 83 c7 14 3d eb af 5d 3d c8 63 72 bd 54 15 fd 3d
       0.03632308 0.054122847 -0.05917719 0.12357584
000050 f7 c5 20 3e 16 7e 69 3d 46 2d 0f 3e 6e 8d 70 3d
       0.15700518 0.05700501 0.13982114 0.058728628
000060 83 7a 76 bd e4 c2 23 3e 1a 2c 8d 3d 1f 80 ee 3d
       -0.06017543 0.15992314 0.06893177 0.11645531
000070 18 65 cf 3d ed 38 94 3d ac 31 b4 3d dc e0 9b bd
       0.10126704 0.0723742 0.08798537 -0.07611248
000080 b0 3e f6 bd 79 79 55 3e d3 7c 15 be c9 ef 07 be
       -0.120236754 0.2084712 -0.14598398 -0.13275065
000090 87 5b 15 3e 02 11 e5 3c 0b 98 98 3d 95 b7 85 3d
       0.14585696 0.027962212 0.07450875 0.06529156
0000a0 fe eb 67 3c e8 12 84 bd 22 31 c9 bc 14 2e 0e 3e
       0.014155386 -0.064489186 -0.024559561 0.13884765
0000b0 c9 56 84 3d 74 9e e2 3d 00 14 a8 3d d6 14 02 3e
       0.064618655 0.11065379 0.0820694 0.12703261
0000c0 e9 ef d2 bd d3 69 36 3c f3 9a ce 3d c4 69 85 3e
       -0.102996655 0.011133629 0.10088148 0.26057255
0000d0 e2 fd 34 3d d9 c0 cb 3b a5 59 45 bb 3a f9 a4 bd
       0.044187434 0.0062180576 -0.0030113247 -0.08055349
0000e0 89 f4 b4 3c bd 5f 57 3e f2 f8 44 bc 8c 9a 5d bd
       0.02208926 0.21032615 -0.012022244 -0.054102466
0000f0 4a a3 d7 3d 21 52 00 3e e0 6f 13 3b 1f 85 39 3e
       0.10529192 0.1253133 0.0022497103 0.18117188
000100 61 86 42 3e b1 2b 43 3e 15 c8 57 3c 45 8a 38 3e
       0.18996574 0.19059636 0.013170262 0.18021496
000110 c9 b3 1d bd a7 ac 0f bb b0 da f5 3c 1d 77 02 bd
       -0.038501535 -0.0021922977 0.030011505 -0.031851877
000120 26 39 61 3d a4 a0 9a 3c 40 e4 ab bc b2 80 fb 3d
       0.05498614 0.018875428 -0.020982862 0.12280406
000130 ad ce 14 3e 0e 6a c1 3c 79 d8 7c 3d 37 2d b2 3d
       0.14531966 0.023610141 0.061729882 0.0870003
000140 d5 34 6b 3e 6d 11 7a 3c dd 1d 22 3c d8 c9 9d 3d
       0.22969373 0.015262944 0.009894815 0.07704514
000150 16 2e 88 bd 05 98 95 bd 76 04 90 bb d3 58 73 bd
       -0.06649415 -0.07304386 -0.004395063 -0.05941088
000160 26 62 43 bb 7b 3b ce 3d 34 e8 07 3e 76 f5 71 3d
       -0.002981314 0.10069939 0.13272172 0.05907198
000170 59 42 c0 bd 41 d6 4e 3b 49 ca c5 3d cb 5a 82 bd
       -0.09387655 0.003156081 0.096577235 -0.06364974
000180 59 55 21 3e 98 bc 85 bc 1b 1c ce bd 3d 44 ab 3d
       0.15755214 -0.01632528 -0.100639544 0.08362625
000190 48 e7 82 3d 04 e1 b9 3d d1 eb 33 3e 46 61 aa bd
       0.0639177 0.090761214 0.17570426 -0.08319335
0001a0 9e f8 b0 3d 08 75 9f bd b6 a8 fd bd 4f 66 31 3d
       0.0864117 -0.07785994 -0.12385695 0.04331046
0001b0 cb 69 e4 3d f1 9e ec 3b 25 08 f5 3d 2e a8 d3 3d
       0.11152991 0.0072210957 0.11964444 0.10334812
0001c0 3f a0 5e 3d 1e 74 cf 3b a9 19 81 3c b1 66 59 bd
       0.05435204 0.006330981 0.015759306 -0.05307645
0001d0 31 ad 4a 3d 5a bb 21 3e 46 e9 be 3d 5a 3d fc 3d
       0.049481574 0.15794125 0.09321837 0.123163894
0001e0 cb d5 8a 3d 64 0d 37 3d dc ea 9f bc e6 40 33 3d
       0.06779059 0.044690505 -0.01952117 0.043763064
0001f0 6f ea e9 3c 4f cd db bd 27 87 b6 3d 23 ab 2f 3d
       0.02855417 -0.10732519 0.08912497 0.042887818
000200 13 b0 86 bd 1a 7d 34 3b 2d 52 a9 3d 3c 50 b5 bc
       -0.06576552 0.0027540387 0.08267627 -0.022132985
000210 41 73 1e 3d 83 74 bd bc cc fd b5 3d 01 ba fd 3c
       0.038684133 -0.023126846 0.088862985 0.030972483
000220 80 27 9b bd 75 ef d9 3c 60 fd f7 3c 31 20 0c 3e
       -0.075758934 0.02660344 0.030272186 0.13684155
000230 49 1c 01 3e b0 f3 96 bd e8 08 6d 3c e3 5e 3d 3e
       0.12608446 -0.073706985 0.014467455 0.18493228
000240 37 e2 16 3e 93 d9 33 3b ce 4a aa 3d 60 ba 8e 3c
       0.14734732 0.0027442917 0.08315049 0.017422855
000250 9b 6f 89 3d cc 52 9f 3a 65 1a 0b 3c 1a 5d 41 3d
       0.0671074 0.0012155413 0.00849018 0.04720793
000260 42 8a d1 3c 02 4f c6 bc c7 a2 98 bc 56 5a 96 bc
       0.025578622 -0.024207596 -0.018632306 -0.018353622
000270 48 e5 0e 3d 4e 6a 4e 3e 3e a7 79 bd 2e b0 02 be
       0.03488663 0.2015774 -0.06095051 -0.1276252
000280 38 18 a4 3d da e3 6f bd 89 ed 16 be 00 d7 a5 3c
       0.08012432 -0.058566906 -0.1473905 0.020244122
000290 bf d5 0d 3d 49 1e 02 3e 2a 07 9a 3d 81 4e 95 3d
       0.034627672 0.12706865 0.07520898 0.07290364
0002a0 4e 57 01 3c 3d 5c d7 3d cd 5b f4 bb 71 90 0d 3c
       0.00789435 0.1051564 -0.0074572326 0.008640395
0002b0 68 2d 96 3d 69 41 6a 3d fd db 91 bc 10 96 29 3e
       0.07332879 0.057191286 -0.017805094 0.1656115
0002c0 34 3d cf bc 9f 88 be 3d 7f 29 16 3e f4 b6 a6 3c
       -0.025297739 0.09303402 0.14664267 0.02035091
0002d0 8e eb be 3d 3b e4 b2 3d af 8d d7 3d 1d 14 30 3e
       0.09322272 0.08734938 0.10525071 0.17195173
0002e0 05 bd 9b 3d a1 79 db 3d eb 9e 60 bc 02 85 cd 3c
       0.07604412 0.10716558 -0.013709764 0.025087837
0002f0 49 82 fd 3c 01 ec 09 bd 60 fb c4 3d fd 7e b4 3d
       0.030945914 -0.033672336 0.096182585 0.088132836
000300 78 8c 81 3e 91 7e 57 3e 26 28 16 3e 86 1e e9 3d
       0.25302482 0.21044375 0.14663753 0.11382775
000310 45 3b 03 3e 7f 57 46 bd 73 81 0d 3e fd 6a 5f bd
       0.12815578 -0.048423287 0.13818912 -0.05454539
000320 35 bb 88 bd 1a 18 c6 3d 9f 39 27 bd d2 b9 c3 3d
       -0.06676332 0.09672566 -0.040826436 0.09556927
000330 f8 c0 57 3e a5 5e b4 3d 76 75 ee 3d 01 bf 10 3e
       0.21069705 0.088071145 0.11643498 0.14135362
000340 d2 5d 13 bb ed d6 cb 3d c1 4e 34 bd 2c 62 09 3e
       -0.0022486341 0.09953103 -0.044020418 0.13416356
000350 16 72 16 3e 90 53 f9 bd 32 24 79 3c 0a 5f f8 3d
       0.14691958 -0.121741414 0.015206384 0.12127502
000360 6f f4 ae 3d 4c 91 64 3d 91 34 43 3d e2 c9 e5 bb
       0.08542716 0.05580263 0.047657553 -0.0070125917
000370 c1 77 0c 3d 8b 31 57 3d 73 75 c8 bc 9e 19 1d 3d
       0.034293894 0.052537482 -0.024470067 0.03835451
000380 0d be 88 3d 84 d4 fb 3d e6 3e 22 3d bb 4b 7c 3d
       0.06676874 0.122963935 0.039610766 0.06159566
000390 b2 66 d8 3c fd f8 ab bd fa 8a 29 3e 48 f1 41 3e
       0.026416156 -0.083971 0.16556922 0.18939698
0003a0 90 1f 9d 3b 62 d1 9a 3c b6 b1 53 be 00 e0 d7 3d
       0.0047950223 0.01889867 -0.2067326 0.105407715
0003b0 0e 49 90 bd 82 94 14 3d f4 d0 be 3d e7 59 9a bd
       -0.07045184 0.03627444 0.093171984 -0.07536679
0003c0 04 a4 5c 3d 03 01 ba 3d 38 8e e2 bc e8 b6 06 3e
       0.053867355 0.09082224 -0.027655706 0.1315571
0003d0 dd b6 37 3c 07 a3 df bd 44 1a 25 3e 29 84 89 bc
       0.011213032 -0.10919767 0.16123301 -0.016786652
0003e0 e0 37 32 3e de 1e b8 3d e2 77 5a 3d 06 c7 d5 3d
       0.17404127 0.089902624 0.053336985 0.10438351
0003f0 58 61 30 3d 3d 85 1f be 9a b5 e8 3d 60 4d 85 3d
       0.043061584 -0.1557817 0.11362763 0.06508899

fc.2.weight f4 [41, 256]
000000 84 1a c3 3d dd 2c b4 3c 16 22 de bc fa e4 8e 3d
       0.09526542 0.021994049 -0.027115863 0.069772676
000010 35 d7 92 3d 53 fa 97 3d 1c 03 4c bd 62 25 9f 3d
       0.07169954 0.074207924 -0.049807653 0.07770802
000020 ff 8b 1e 3e 34 7c 23 be 99 da 4a 3e ed f1 f5 bc
       0.15483092 -0.15965348 0.19809951 -0.030022586
000030 f5 a9 45 3d 4c 45 5c be 7e d4 47 bd 76 09 c0 bd
       0.048257787 -0.2151081 -0.048786633 -0.093768045
000040 31 b5 37 3d b4 e6 a9 3d 53 3e bb bb 1e ed 31 3d
       0.044850532 0.08295956 -0.0057142167 0.043439023
000050 76 a0 0f be d8 99 b0 bd 1c cf 29 be b2 ec 40 3d
       -0.14026055 -0.08623093 -0.16582912 0.04710073
000060 f8 4e c0 3d f2 d1 3a 3d 54 b8 c6 bc 74 f7 26 3d
       0.09390062 0.045610376 -0.024257816 0.040763333
000070 98 9a 83 3c 0c 13 20 bd 55 81 47 3d b2 4f d7 3c
       0.016064927 -0.039080665 0.048707325 0.026283119
000080 da 7a ca bd bf a6 69 be 7d fb d2 bd 74 be 1e bd
       -0.09886713 -0.22817515 -0.10301874 -0.03875585
000090 72 1f 53 be d6 8f 6c bd 1d 6b 69 39 2c 6a 16 bd
       -0.20617464 -0.05775436 0.00022260514 -0.036722347
0000a0 8d 0c c3 3d d9 9d 0c be dd c0 a3 bd 33 ac 87 bb
       0.09523878 -0.13732089 -0.0799577 -0.004140401
0000b0 25 f0 cf bc ef 0a fa 3c a3 79 42 3d 32 42 74 be
       -0.025383065 0.030522792 0.047479283 -0.23853377
0000c0 e6 0e 6e be 10 30 af bc 30 d1 3b be 1a 02 8d be
       -0.23247871 -0.021385223 -0.18341517 -0.27540666
0000d0 52 8e f9 3d 95 9e 37 be 6c 92 66 3d 84 b6 3b be
       0.121853486 -0.17931588 0.056291983 -0.18331343
0000e0 71 3b 6e 3d 6a a7 d3 3d 37 ab 57 3d 00 eb f1 bd
       0.058162156 0.10334666 0.052653518 -0.11812401
0000f0 9d 0f bb 3d 29 a9 45 3d 6d 8e 02 be c1 f9 6e be
       0.09133837 0.048257027 -0.12749644 -0.23337461
000100 ee 8f f2 bc 46 64 8c 3d da 60 81 3d 17 78 c6 3d
       -0.029609647 0.06855063 0.06317301 0.09690874
000110 a6 5a b0 3d 43 d2 b1 3d d5 22 b4 b9 f6 46 22 be
       0.0861104 0.08682682 -0.00034358227 -0.15847382
000120 10 c3 9a 3d ad 8e ab 3d 2a e7 76 3d 29 be c7 3d
       0.075567365 0.083768226 0.06027905 0.09753067
000130 cd c8 66 be 72 1a 23 be 55 3b 46 be 72 62 9e 3d
       -0.22537537 -0.15928057 -0.19358571 0.07733621
000140 8f bb 8b 3d fe 10 b2 bd 93 9e b7 3c f9 ed cb bd
       0.06822883 -0.08694647 0.022414481 -0.09957499
000150 87 52 20 3e 1d 0e ea bd 29 98 df bc 62 16 ad 3d
       0.15656482 -0.11428473 -0.027294235 0.08451535
000160 b7 7d c4 bd 7d f1 0b 3e 4c f6 10 3d af fe 4d 3d
       -0.09594291 0.13666339 0.035391137 0.050291713
000170 7f 80 16 be c3 21 93 bd c6 09 1c 3d eb 4b d9 3c
       -0.14697455 -0.07184174 0.03809526 0.026525458
000180 1d 4a b9 3c c3 10 7c 3d 61 64 53 3e 6c 20 35 be
       0.022618348 0.061539423 0.2064376 -0.17688149
000190 fd a1 5f 3d 58 4e f1 bd 12 54 c1 3d bd 72 14 be
       0.054597843 -0.11782521 0.09439863 -0.14496894
0001a0 b6 61 64 bd 6d 6d ea 3d 61 d1 a9 bd fd 8e df 3d
       -0.055757247 0.114466526 -0.08291889 0.10915945
0001b0 9e a9 0f bd ab de 35 be 91 2f 2a 3d 6c d8 76 bb
       -0.03507387 -0.17760722 0.04154927 -0.0037665619
0001c0 b1 54 78 be e3 3c d0 bd 05 ea 71 be ae 85 e0 bc
       -0.24251057 -0.10167863 -0.23624428 -0.027407493
0001d0 e3 0a ef 3d 97 5a 1f 3d 9e 4b 3f 3d 39 eb 79 3d
       0.11671998 0.038904753 0.046702974 0.06101534
0001e0 32 b2 f3 3c d8 7f ba 3d f3 a7 82 bc 86 a0 15 3d
       0.029748056 0.091064155 -0.015949225 0.03653004
0001f0 53 2a 5a bd f0 52 ca bd d6 ed 5b 3b c7 c1 26 3d
       -0.05326302 -0.098791 0.003355851 0.040712144
000200 27 3c 95 3d e5 2f 02 3e b4 0c 8c 3d 38 1b 83 3d
       0.07286864 0.12713583 0.068383604 0.06401676
000210 9f 19 6b bd a7 f0 c3 bd 97 1c 14 3d 0e 30 62 be
       -0.05739748 -0.09567385 0.036160078 -0.22088644
000220 89 84 1d 3c 9a 2a b7 3c f9 a6 c4 3d c4 e1 27 3d
       0.009614118 0.022359181 0.0960216 0.04098679
000230 5a 5b 8b 3d 24 59 29 3d e8 f6 23 bb 70 d0 29 be
       0.06804533 0.041344777 -0.0025018994 -0.16583419
000240 9f c1 90 3d 12 6e 50 3d 55 59 68 3d 4e 2d b9 bb
       0.0706818 0.05088622 0.05672582 -0.0056511527
000250 43 30 81 bd 6d 0e 6e 3d ff ef 3f 3c 40 5c 44 be
       -0.06308033 0.058119226 0.011714934 -0.19175816
000260 a6 47 21 3d 10 bb 39 3d 74 54 33 be da 1a eb 3c
       0.03937497 0.045344412 -0.17512685 0.028699327
000270 c7 9c 3c 3c 70 7c 94 3d 34 3d 16 be 03 2e 1c be
       0.011511988 0.07250297 -0.14671785 -0.15251927
000280 82 5d db 3d 72 30 0b be e8 4a a8 bc 43 2e de bd
       0.107111946 -0.13592699 -0.02054353 -0.108486675
000290 3e a8 ab 3c db 54 7b 3d 83 0b 01 bd 29 a2 3a be
       0.020954248 0.06136022 -0.03150512 -0.18225922
0002a0 a0 2b a2 3d 97 eb 25 b9 d8 c2 29 bd 21 16 00 be
       0.07918477 -0.0001582339 -0.041445583 -0.12508442
0002b0 96 76 99 3d e2 09 d0 3d 60 c0 12 be a7 f4 84 bd
       0.074933216 0.10158135 -0.14331198 -0.06491976
0002c0 e8 d7 81 bd 70 29 72 3d f7 52 84 3c 87 74 31 be
       -0.06340009 0.05912155 0.016152842 -0.17329608
0002d0 fc b7 ce 3d f0 44 e1 3d 7a f0 ba 3d c6 45 9e 3d
       0.10093686 0.10999477 0.091278985 0.07728152
0002e0 1b ac 85 3d d5 9d 7d 3d ad 23 3e bd b1 c9 e0 bb
       0.06526967 0.0619181 -0.04642074 -0.006859981
0002f0 90 1b 8a 3d 2b 2d d5 bd df 71 0b bd 1c 6a 40 3d
       0.067435384 -0.10409006 -0.034044143 0.046976194
000300 57 01 a2 3d 68 f3 c2 3d 62 5f 43 3d 04 a2 a5 3d
       0.07910412 0.09519082 0.047698386 0.08087543
000310 d5 06 ae 3d 09 71 0e be 78 bc ac 3d 88 d0 19 ba
       0.08497397 -0.13910307 0.08434385 -0.00058675604
000320 39 83 92 3d 72 62 b8 bd fb b5 9e bd 4c 7b 86 bd
       0.07153935 -0.09003152 -0.07749554 -0.06566486
000330 12 e3 74 3d 93 b6 99 3b 2b cd a7 bd 0a ae 24 bd
       0.059786864 0.004690954 -0.081934296 -0.04020504
000340 a0 d4 82 3d 45 f4 8c be fc 04 9b bd 29 e4 61 3c
       0.06388211 -0.27530113 -0.0756931 0.013787308
000350 11 5e 02 3d dc e9 bc 3c 02 f4 4f 3d 32 cd 74 bd
       0.03182799 0.023060732 0.050769813 -0.059766002
000360 3f 59 16 bd 38 7d de 3d 57 12 d8 bb 80 20 de bc
       -0.036706205 0.10863727 -0.006593983 -0.027115107
000370 4e 01 2d 3e 31 95 26 3d 95 88 3b bd 6d bc bb 3d
       0.16895029 0.040669624 -0.04578455 0.09166799
000380 98 27 89 3d 29 fc 46 3d dd 53 08 be 36 13 28 3d
       0.06697005 0.048580322 -0.13313241 0.041033946
000390 b0 69 01 3d 12 f1 7e 3d 0a 84 18 3d 04 ea 09 be
       0.031594932 0.06224162 0.037235297 -0.13468176
0003a0 60 a3 03 be 91 4c 75 3d b1 5b 8c bd 47 70 ac bd
       -0.12855291 0.059887473 -0.06853426 -0.08419853
0003b0 0c 12 0b be f4 03 dc bd d4 ee a6 3d f3 cc f7 bd
       -0.13581103 -0.107429415 0.081510216 -0.12099638
0003c0 95 a7 ca 3b a8 ae 5e bd 2f a8 dc bc 39 9a 81 3d
       0.006184528 -0.054365784 -0.026935665 0.06328244
0003d0 d4 dd 08 be 6a 67 02 bd 67 61 85 bc 49 db c0 3d
       -0.1336587 -0.031836905 -0.016281797 0.09416825
0003e0 b1 8d 8d bd fd cc a7 3d f0 9c c9 3d d0 62 85 3d
       -0.06911791 0.08193395 0.098443866 0.065129876
0003f0 73 de 0f 3e 83 5b 38 3e d3 0b 2c 3d e7 b3 8d 3c
       0.14049701 0.18003659 0.042003464 0.017297698

fc.2.bias f4 [41]
000000 ed c0 22 bb 2a f5 18 be 9e f3 bb bd 3e cb c3 bc
       -0.002483423 -0.14937273 -0.09177326 -0.023900624
000010 c7 44 ec 3c 81 4b b4 3d d2 38 d9 3d b3 70 e9 bd
       0.02884139 0.08803464 0.10606541 -0.11398449
000020 f2 af 09 be c9 26 09 bd b9 9f 43 bd 7c cc 86 bd
       -0.13446024 -0.033484254 -0.047759745 -0.06581971
000030 1c 2a 9a b9 8d 09 27 bd b6 4f 2f bd b9 e2 27 bd
       -0.00029404543 -0.040780593 -0.042800628 -0.040987704
000040 fa 09 c6 3a 2c 82 6d bd 6f a1 aa bd f0 72 83 3c
       0.0015109174 -0.05798547 -0.08331572 0.016046017
000050 2e 05 15 bd 6c b3 ba bd a9 13 c5 bc f0 eb 2b 3e
       -0.036381893 -0.09116253 -0.024057226 0.16789222
000060 b2 6d f7 3d af c6 b1 bb d2 c0 fd bc 03 fe 8f 3d
       0.120814696 -0.0054252963 -0.030975733 0.07030871
000070 72 59 72 bd 46 d5 c3 3d 42 4a 1c 3d cd f7 ed 3d
       -0.059167333 0.09562163 0.038156755 0.1161953
000080 e8 dc 75 3d 5e 66 8a bc 02 2d d3 bc 6f 64 f9 bc
       0.060025126 -0.016894516 -0.025778297 -0.030443398
000090 c1 66 1d 3d 99 ca e4 bc 89 4f 0d bb 78 2b 85 bd
       0.038428072 -0.027928637 -0.00215623 -0.06502432
0000a0 8e 50 70 bb
       -0.0036669108
